smoke_model.pt (torch, 4592 bytes, 8 tensors)

linear_relu_stack.0.weight f4 [16, 6]
0.5458388 0.49770266 -0.531843 0.29931027 -0.17343226 0.4398662 -0.8075314 -0.7380313
-0.084128946 -0.409934 0.006265953 -0.44134864 -0.22019531 -0.2503321 0.21469694 -0.104875885
-0.08584545 0.19894293 0.42251834 -0.28873605 -0.7121089 -0.016317304 -0.45536715 0.096617356
0.15774278 0.07638265 0.22788487 -0.017999275 0.22994953 -0.17534776 0.099141374 0.46330905
-0.26832804 0.29266638 0.31752032 -0.2789898 0.19494562 -0.097282924 0.40378073 0.1803747
0.21148622 -0.21345457 0.5089062 -0.1873666 0.37864774 0.19995339 0.1789966 -0.07071208
0.33428144 0.036271628 -0.1836172 0.43720466 0.19255753 0.44953308 0.003371457 0.69553757
0.13619727 0.05095332 -0.1565488 -0.11986877 -0.49114752 0.28459987 -0.43709257 0.18861164
0.31891447 -0.11255353 0.3796054 -0.07319334 -0.07694693 -0.39986864 0.1312331 0.21032952
-0.8385579 -0.049237844 -0.069395 0.1872544 -0.71174216 0.7606356 0.019604187 -0.0034715654
0.30864456 0.032756913 0.3777414 0.32930794 0.55000913 -0.400553 -0.07872871 -0.4172537
-0.27866247 0.36276594 -0.14035887 0.3281401 0.31068313 -0.32967234 -0.39911053 0.1291473
00000000: 17bc 0b3f e2d2 fe3e dd26 08bf 323f 993e
00000010: 3a98 31be 2436 e13e 61ba 4ebf 9fef 3cbf
00000020: cc4b acbd dfe2 d1be a052 cd3b 73f8 e1be
00000030: e17a 61be 872b 80be 84d9 5b3e 2bc9 d6bd
00000040: bdcf afbd b2b7 4b3e 5354 d83e 36d5 93be
00000050: c54c 36bf deab 85bc e225 e9be 52df c53d
00000060: 5387 213e 826e 9c3d a75a 693e 3773 93bc
00000070: e477 6b3e 5d8e 33be a20a cb3d d836 ed3e
00000080: 4b62 89be 5ed8 953e 0692 a23e c0d7 8ebe
00000090: d39f 473e 453c c7bd 59bc ce3e 25b4 383e
000000a0: d88f 583e d693 5abe ad47 023f 08dd 3fbe
000000b0: 1ede c13e 95c0 4c3e e24a 373e 7fd1 90bd
000000c0: f026 ab3e 8f91 143d 2606 3cbe 4ad9 df3e
000000d0: cd2d 453e 3329 e63e aaf3 5c3b c00e 323f
000000e0: 4c77 0b3e 6eb4 503d 544e 20be c27d f5bd
000000f0: b077 fbbe 13b7 913e 99ca dfbe 6923 413e
00000100: c248 a33e 7782 e6bd a45b c23e 64e6 95bd
00000110: 5a96 9dbd 95bb ccbe f861 063e 9f60 573e
00000120: bbab 56bf 9fad 49bd f71e 8ebd 9ebf 3f3e
00000130: bc34 36bf 04b9 423f f698 a03c 3483 63bb
00000140: a906 9e3e 1d2c 063d 5267 c13e 0d9b a83e
00000150: 66cd 0c3f 4815 cdbe 853c a1bd 47a2 d5be
00000160: d9ac 8ebe 75bc b93e 3cba 0fbe fb01 a83e
00000170: dc11 9f3e d0ca a8be 3758 ccbe 313f 043e

linear_relu_stack.0.bias f4 [16]
-0.3655538 -0.03424428 0.03226031 -0.0056952895 -0.30345416 0.016079351 0.4099976 -0.3490689
-0.15129057 0.12194168 -0.33712766 0.19287825 0.36647195 0.36393607 0.43322906 0.16550472
00000000: de29 bbbe bb43 0cbd 6323 043d 8d9f babb
00000010: 585e 9bbe d8b8 833c 35eb d13e 29b9 b2be
00000020: eaeb 1abe 8fbc f93d ff9b acbe e081 453e
00000030: 36a2 bb3e d455 ba3e 33d0 dd3e 127a 293e

linear_relu_stack.2.weight f4 [8, 16]
0.27679595 0.23658797 0.075346425 -0.018122232 0.16015528 0.032550287 0.31608236 0.11022041
0.25045377 -0.07523182 -0.37917405 -0.15703824 -0.23270395 -0.049798757 -0.17565669 0.20802924
-0.15067118 -0.3760792 0.13948867 -0.13912685 -0.14304201 0.2624556 -0.19942603 0.10391968
-0.35585722 0.13282175 0.41405776 0.07320124 0.31606352 0.052445814 0.048251618 -0.22067425
0.3974614 -0.25173333 -0.16846488 0.30445203 0.2789333 0.08730676 -0.3080928 0.24367414
0.10040131 -0.29192755 0.2380707 0.22936118 0.7211441 0.08469993 0.44034818 -0.1754037
-0.32251844 0.66278726 -0.09019794 -0.59601235 -0.22733404 0.0017143202 0.054496408 -0.3305538
0.039700095 0.3927903 -0.41537055 -0.29754588 -0.55638033 0.010416554 -0.52918434 0.020560283
0.1144818 0.033103425 -0.05752311 0.081848785 0.15031268 0.18696237 0.19393212 0.07379124
0.18442643 -0.11874812 -0.056549273 0.084419474 -0.008735969 -0.07541051 0.058843292 0.06388781
-0.45976734 0.40822393 -0.10902444 -0.5018392 -0.1843454 0.03395609 -0.06305744 -0.020079212
-0.039547548 0.3349153 0.011604661 -0.23588961 -0.6008702 -0.16228889 -0.37902912 0.20259842
0.3729512 0.5468047 -0.22514357 -0.28572136 -0.064220816 0.27170432 0.33061194 -0.060035694
0.37375307 0.30057767 -0.3430281 -0.12428733 -0.36689228 -0.26889768 -0.23156048 -0.18449101
-0.0726831 0.0184987 0.21391514 -0.19094865 -0.142022 0.2853859 -0.034360293 -0.15241885
-0.27188495 0.08349114 0.10452261 0.2818602 0.26748046 0.20362727 -0.07886719 0.21586247
00000000: 33b8 8d3e 1e44 723e 3a4f 9a3d 1375 94bc
00000010: bfff 233e 7353 053d 8cd5 a13e 3dbb e13d
00000020: 7a3b 803e 2413 9abd 1a23 c2be a2ce 20be
00000030: f249 6ebe c8f9 4bbd 59df 33be 9e05 553e
00000040: 8c49 1abe 748d c0be 1ed6 0e3e 4577 0ebe
00000050: 9b79 12be 9560 863e 5636 4cbe d7d3 d43d
00000060: eb32 b6be 6d02 083e 61ff d33e 88ea 953d
00000070: 14d3 a13e 6cd1 563d 7da3 453d 6ef8 61be
00000080: 1080 cb3e 31e3 80be 0f82 2cbe 23e1 9b3e
00000090: 58d0 8e3e e3cd b23d 57be 9dbe b785 793e
000000a0: 349f cd3d 8777 95be cec8 733e a8dd 6a3e
000000b0: e69c 383f 2877 ad3d 5175 e13e 079d 33be
000000c0: 2321 a5be 6dac 293f b3b9 b8bd 4494 18bf
000000d0: 41ca 68be 0ab3 e03a a037 5f3d 593e a9be
000000e0: 919c 223d cf1b c93e 73ab d4be ef57 98be
000000f0: f16e 0ebf 32aa 2a3c a078 07bf 0a6e a83c
00000100: 6f75 ea3d 7597 073d 5a9d 6bbd 56a0 a73d
00000110: 91eb 193e 1073 3f3e 2496 463e dd1f 973d
00000120: 48da 3c3e 3732 f3bd 36a0 67bd 1ee4 ac3d
00000130: 4f21 0fbc d370 9abd aa05 713d 9dd7 823d
00000140: a066 ebbe ba02 d13e 3548 dfbd 8978 00bf
00000150: 0ac5 3cbe 8b15 0b3d 4224 81bd 297d a4bc
00000160: 9cfc 21bd 057a ab3e 7a21 3e3c 0c8d 71be
00000170: a1d2 19bf 0f2f 26be 1b10 c2be f675 4f3e
00000180: 76f3 be3e 65fb 0b3f 098c 66be 124a 92be
00000190: 3486 83bd d41c 8b3e f845 a93e fde7 75bd
000001a0: 905c bf3e 51e5 993e 61a1 afbe 5b8a febd
000001b0: 4ed9 bbbe f5ac 89be 311e 6dbe 36eb 3cbe
000001c0: e1da 94bd 968a 973c 920c 5b3e 0b88 43be
000001d0: 376e 11be 1a1e 923e 61bd 0cbd b013 1cbe
000001e0: 8134 8bbe 67fd aa3d f30f d63d fb4f 903e
000001f0: 33f3 883e ab83 503e 1f85 a1bd 0d0b 5d3e

linear_relu_stack.2.bias f4 [8]
-0.13938788 0.027052537 -0.15343648 0.16365649 0.11491655 0.2343879 0.09623211 -0.14715892
00000000: b2bb 0ebe 489d dd3c 741e 1dbe 9195 273e
00000010: 5e59 eb3d 6203 703e 5715 c53d d4b0 16be

linear_relu_stack.4.weight f4 [4, 8]
0.59430623 -0.06465082 -0.876117 0.75669664 -0.07239214 0.37621698 0.37126294 -0.082537
0.26914093 0.0022964617 -0.040639956 -0.31484598 -0.1281974 -0.056429524 -0.047357332 -0.2514602
0.2218748 -0.594349 -0.4281849 0.7700752 0.28944138 0.7908731 0.9867715 -0.364367
-0.39410087 0.636717 0.33848023 -0.58607876 0.09770301 -0.31332842 -0.6528947 0.4006872
00000000: 7424 183f a667 84bd 3449 60bf dfb6 413f
00000010: 5542 94bd 839f c03e 2d16 be3e 2909 a9bd
00000020: d7cc 893e 3c80 163b 1576 26bd 7e33 a1be
00000030: 2e46 03be a522 67bd c3f9 41bd 64bf 80be
00000040: 2633 633e 4227 18bf 0d3b dbbe a623 453f
00000050: a931 943e a976 4a3f 0f9d 7c3f 508e babe
00000060: 97c7 c9be e3ff 223f 484d ad3e 4209 16bf
00000070: 8418 c83d 956c a0be 1b24 27bf df26 cd3e

linear_relu_stack.4.bias f4 [4]
0.3759423 -0.057023186 0.40623942 -0.31128272
00000000: 827b c03e 2591 69bd 9dfe cf3e 7360 9fbe

linear_relu_stack.6.weight f4 [2, 4]
-1.3556019 0.4417072 -1.4083887 1.0647589 0.7183215 0.31929615 1.4962984 -0.8682329
00000000: 5d84 adbf 7227 e23e 1546 b4bf 054a 883f
00000010: ebe3 373f c97a a33e b586 bf3f 8344 5ebf

linear_relu_stack.6.bias f4 [2]
-0.53456926 0.11190934
00000000: 88d9 08bf b930 e53d
